<?xml version="1.0" ?>
<net batch="1" name="model" version="2">
	<layers>
		<layer id="103" name="data" precision="FP16" type="Input">
			<output>
				<port id="0">
					<dim>1</dim>
					<dim>3</dim>
					<dim>300</dim>
					<dim>300</dim>
				</port>
			</output>
		</layer>
		<layer id="48" name="conv0" precision="FP16" type="Convolution">
			<data dilation-x="1" dilation-y="1" group="1" kernel-x="3" kernel-y="3" output="32" pad-x="1" pad-y="1" stride="1,1,2,2" stride-x="2" stride-y="2"/>
			<input>
				<port id="0">
					<dim>1</dim>
					<dim>3</dim>
					<dim>300</dim>
					<dim>300</dim>
				</port>
			</input>
			<output>
				<port id="3">
					<dim>1</dim>
					<dim>32</dim>
					<dim>150</dim>
					<dim>150</dim>
				</port>
			</output>
			<blobs>
				<weights offset="9400706" size="1728"/>
				<biases offset="9388354" size="64"/>
			</blobs>
		</layer>
		<layer id="203" name="conv0/relu" precision="FP16" type="ReLU">
			<data engine="caffe.ReLUParameter.DEFAULT" negative_slope="0.0"/>
			<input>
				<port id="0">
					<dim>1</dim>
					<dim>32</dim>
					<dim>150</dim>
					<dim>150</dim>
				</port>
			</input>
			<output>
				<port id="1">
					<dim>1</dim>
					<dim>32</dim>
					<dim>150</dim>
					<dim>150</dim>
				</port>
			</output>
		</layer>
		<layer id="283" name="conv1/dw" precision="FP16" type="Convolution">
			<data dilation-x="1" dilation-y="1" group="32" kernel-x="3" kernel-y="3" output="32" pad-x="1" pad-y="1" stride="1,1,1,1" stride-x="1" stride-y="1"/>
			<input>
				<port id="0">
					<dim>1</dim>
					<dim>32</dim>
					<dim>150</dim>
					<dim>150</dim>
				</port>
			</input>
			<output>
				<port id="3">
					<dim>1</dim>
					<dim>32</dim>
					<dim>150</dim>
					<dim>150</dim>
				</port>
			</output>
			<blobs>
				<weights offset="5694034" size="576"/>
				<biases offset="4958844" size="64"/>
			</blobs>
		</layer>
		<layer id="100" name="conv1/dw/relu" precision="FP16" type="ReLU">
			<data engine="caffe.ReLUParameter.DEFAULT" negative_slope="0.0"/>
			<input>
				<port id="0">
					<dim>1</dim>
					<dim>32</dim>
					<dim>150</dim>
					<dim>150</dim>
				</port>
			</input>
			<output>
				<port id="1">
					<dim>1</dim>
					<dim>32</dim>
					<dim>150</dim>
					<dim>150</dim>
				</port>
			</output>
		</layer>
		<layer id="234" name="conv1" precision="FP16" type="Convolution">
			<data dilation-x="1" dilation-y="1" group="1" kernel-x="1" kernel-y="1" output="64" pad-x="0" pad-y="0" stride="1,1,1,1" stride-x="1" stride-y="1"/>
			<input>
				<port id="0">
					<dim>1</dim>
					<dim>32</dim>
					<dim>150</dim>
					<dim>150</dim>
				</port>
			</input>
			<output>
				<port id="3">
					<dim>1</dim>
					<dim>64</dim>
					<dim>150</dim>
					<dim>150</dim>
				</port>
			</output>
			<blobs>
				<weights offset="462088" size="4096"/>
				<biases offset="9360322" size="128"/>
			</blobs>
		</layer>
		<layer id="30" name="conv1/relu" precision="FP16" type="ReLU">
			<data engine="caffe.ReLUParameter.DEFAULT" negative_slope="0.0"/>
			<input>
				<port id="0">
					<dim>1</dim>
					<dim>64</dim>
					<dim>150</dim>
					<dim>150</dim>
				</port>
			</input>
			<output>
				<port id="1">
					<dim>1</dim>
					<dim>64</dim>
					<dim>150</dim>
					<dim>150</dim>
				</port>
			</output>
		</layer>
		<layer id="308" name="conv2/dw" precision="FP16" type="Convolution">
			<data dilation-x="1" dilation-y="1" group="64" kernel-x="3" kernel-y="3" output="64" pad-x="1" pad-y="1" stride="1,1,2,2" stride-x="2" stride-y="2"/>
			<input>
				<port id="0">
					<dim>1</dim>
					<dim>64</dim>
					<dim>150</dim>
					<dim>150</dim>
				</port>
			</input>
			<output>
				<port id="3">
					<dim>1</dim>
					<dim>64</dim>
					<dim>75</dim>
					<dim>75</dim>
				</port>
			</output>
			<blobs>
				<weights offset="300" size="1152"/>
				<biases offset="11042418" size="128"/>
			</blobs>
		</layer>
		<layer id="183" name="conv2/dw/relu" precision="FP16" type="ReLU">
			<data engine="caffe.ReLUParameter.DEFAULT" negative_slope="0.0"/>
			<input>
				<port id="0">
					<dim>1</dim>
					<dim>64</dim>
					<dim>75</dim>
					<dim>75</dim>
				</port>
			</input>
			<output>
				<port id="1">
					<dim>1</dim>
					<dim>64</dim>
					<dim>75</dim>
					<dim>75</dim>
				</port>
			</output>
		</layer>
		<layer id="323" name="conv2" precision="FP16" type="Convolution">
			<data dilation-x="1" dilation-y="1" group="1" kernel-x="1" kernel-y="1" output="128" pad-x="0" pad-y="0" stride="1,1,1,1" stride-x="1" stride-y="1"/>
			<input>
				<port id="0">
					<dim>1</dim>
					<dim>64</dim>
					<dim>75</dim>
					<dim>75</dim>
				</port>
			</input>
			<output>
				<port id="3">
					<dim>1</dim>
					<dim>128</dim>
					<dim>75</dim>
					<dim>75</dim>
				</port>
			</output>
			<blobs>
				<weights offset="9362754" size="16384"/>
				<biases offset="10451010" size="256"/>
			</blobs>
		</layer>
		<layer id="94" name="conv2/relu" precision="FP16" type="ReLU">
			<data engine="caffe.ReLUParameter.DEFAULT" negative_slope="0.0"/>
			<input>
				<port id="0">
					<dim>1</dim>
					<dim>128</dim>
					<dim>75</dim>
					<dim>75</dim>
				</port>
			</input>
			<output>
				<port id="1">
					<dim>1</dim>
					<dim>128</dim>
					<dim>75</dim>
					<dim>75</dim>
				</port>
			</output>
		</layer>
		<layer id="193" name="conv3/dw" precision="FP16" type="Convolution">
			<data dilation-x="1" dilation-y="1" group="128" kernel-x="3" kernel-y="3" output="128" pad-x="1" pad-y="1" stride="1,1,1,1" stride-x="1" stride-y="1"/>
			<input>
				<port id="0">
					<dim>1</dim>
					<dim>128</dim>
					<dim>75</dim>
					<dim>75</dim>
				</port>
			</input>
			<output>
				<port id="3">
					<dim>1</dim>
					<dim>128</dim>
					<dim>75</dim>
					<dim>75</dim>
				</port>
			</output>
			<blobs>
				<weights offset="9360450" size="2304"/>
				<biases offset="6361234" size="256"/>
			</blobs>
		</layer>
		<layer id="246" name="conv3/dw/relu" precision="FP16" type="ReLU">
			<data engine="caffe.ReLUParameter.DEFAULT" negative_slope="0.0"/>
			<input>
				<port id="0">
					<dim>1</dim>
					<dim>128</dim>
					<dim>75</dim>
					<dim>75</dim>
				</port>
			</input>
			<output>
				<port id="1">
					<dim>1</dim>
					<dim>128</dim>
					<dim>75</dim>
					<dim>75</dim>
				</port>
			</output>
		</layer>
		<layer id="305" name="conv3" precision="FP16" type="Convolution">
			<data dilation-x="1" dilation-y="1" group="1" kernel-x="1" kernel-y="1" output="128" pad-x="0" pad-y="0" stride="1,1,1,1" stride-x="1" stride-y="1"/>
			<input>
				<port id="0">
					<dim>1</dim>
					<dim>128</dim>
					<dim>75</dim>
					<dim>75</dim>
				</port>
			</input>
			<output>
				<port id="3">
					<dim>1</dim>
					<dim>128</dim>
					<dim>75</dim>
					<dim>75</dim>
				</port>
			</output>
			<blobs>
				<weights offset="428248" size="32768"/>
				<biases offset="9360066" size="256"/>
			</blobs>
		</layer>
		<layer id="325" name="conv3/relu" precision="FP16" type="ReLU">
			<data engine="caffe.ReLUParameter.DEFAULT" negative_slope="0.0"/>
			<input>
				<port id="0">
					<dim>1</dim>
					<dim>128</dim>
					<dim>75</dim>
					<dim>75</dim>
				</port>
			</input>
			<output>
				<port id="1">
					<dim>1</dim>
					<dim>128</dim>
					<dim>75</dim>
					<dim>75</dim>
				</port>
			</output>
		</layer>
		<layer id="233" name="conv4/dw" precision="FP16" type="Convolution">
			<data dilation-x="1" dilation-y="1" group="128" kernel-x="3" kernel-y="3" output="128" pad-x="1" pad-y="1" stride="1,1,2,2" stride-x="2" stride-y="2"/>
			<input>
				<port id="0">
					<dim>1</dim>
					<dim>128</dim>
					<dim>75</dim>
					<dim>75</dim>
				</port>
			</input>
			<output>
				<port id="3">
					<dim>1</dim>
					<dim>128</dim>
					<dim>38</dim>
					<dim>38</dim>
				</port>
			</output>
			<blobs>
				<weights offset="11040114" size="2304"/>
				<biases offset="9310658" size="256"/>
			</blobs>
		</layer>
		<layer id="227" name="conv4/dw/relu" precision="FP16" type="ReLU">
			<data engine="caffe.ReLUParameter.DEFAULT" negative_slope="0.0"/>
			<input>
				<port id="0">
					<dim>1</dim>
					<dim>128</dim>
					<dim>38</dim>
					<dim>38</dim>
				</port>
			</input>
			<output>
				<port id="1">
					<dim>1</dim>
					<dim>128</dim>
					<dim>38</dim>
					<dim>38</dim>
				</port>
			</output>
		</layer>
		<layer id="84" name="conv4" precision="FP16" type="Convolution">
			<data dilation-x="1" dilation-y="1" group="1" kernel-x="1" kernel-y="1" output="256" pad-x="0" pad-y="0" stride="1,1,1,1" stride-x="1" stride-y="1"/>
			<input>
				<port id="0">
					<dim>1</dim>
					<dim>128</dim>
					<dim>38</dim>
					<dim>38</dim>
				</port>
			</input>
			<output>
				<port id="3">
					<dim>1</dim>
					<dim>256</dim>
					<dim>38</dim>
					<dim>38</dim>
				</port>
			</output>
			<blobs>
				<weights offset="733704" size="65536"/>
				<biases offset="1775232" size="512"/>
			</blobs>
		</layer>
		<layer id="301" name="conv4/relu" precision="FP16" type="ReLU">
			<data engine="caffe.ReLUParameter.DEFAULT" negative_slope="0.0"/>
			<input>
				<port id="0">
					<dim>1</dim>
					<dim>256</dim>
					<dim>38</dim>
					<dim>38</dim>
				</port>
			</input>
			<output>
				<port id="1">
					<dim>1</dim>
					<dim>256</dim>
					<dim>38</dim>
					<dim>38</dim>
				</port>
			</output>
		</layer>
		<layer id="154" name="conv5/dw" precision="FP16" type="Convolution">
			<data dilation-x="1" dilation-y="1" group="256" kernel-x="3" kernel-y="3" output="256" pad-x="1" pad-y="1" stride="1,1,1,1" stride-x="1" stride-y="1"/>
			<input>
				<port id="0">
					<dim>1</dim>
					<dim>256</dim>
					<dim>38</dim>
					<dim>38</dim>
				</port>
			</input>
			<output>
				<port id="3">
					<dim>1</dim>
					<dim>256</dim>
					<dim>38</dim>
					<dim>38</dim>
				</port>
			</output>
			<blobs>
				<weights offset="14252" size="4608"/>
				<biases offset="4924796" size="512"/>
			</blobs>
		</layer>
		<layer id="269" name="conv5/dw/relu" precision="FP16" type="ReLU">
			<data engine="caffe.ReLUParameter.DEFAULT" negative_slope="0.0"/>
			<input>
				<port id="0">
					<dim>1</dim>
					<dim>256</dim>
					<dim>38</dim>
					<dim>38</dim>
				</port>
			</input>
			<output>
				<port id="1">
					<dim>1</dim>
					<dim>256</dim>
					<dim>38</dim>
					<dim>38</dim>
				</port>
			</output>
		</layer>
		<layer id="209" name="conv5" precision="FP16" type="Convolution">
			<data dilation-x="1" dilation-y="1" group="1" kernel-x="1" kernel-y="1" output="256" pad-x="0" pad-y="0" stride="1,1,1,1" stride-x="1" stride-y="1"/>
			<input>
				<port id="0">
					<dim>1</dim>
					<dim>256</dim>
					<dim>38</dim>
					<dim>38</dim>
				</port>
			</input>
			<output>
				<port id="3">
					<dim>1</dim>
					<dim>256</dim>
					<dim>38</dim>
					<dim>38</dim>
				</port>
			</output>
			<blobs>
				<weights offset="284888" size="131072"/>
				<biases offset="1452" size="512"/>
			</blobs>
		</layer>
		<layer id="98" name="conv5/relu" precision="FP16" type="ReLU">
			<data engine="caffe.ReLUParameter.DEFAULT" negative_slope="0.0"/>
			<input>
				<port id="0">
					<dim>1</dim>
					<dim>256</dim>
					<dim>38</dim>
					<dim>38</dim>
				</port>
			</input>
			<output>
				<port id="1">
					<dim>1</dim>
					<dim>256</dim>
					<dim>38</dim>
					<dim>38</dim>
				</port>
			</output>
		</layer>
		<layer id="69" name="conv6/dw" precision="FP16" type="Convolution">
			<data dilation-x="1" dilation-y="1" group="256" kernel-x="3" kernel-y="3" output="256" pad-x="1" pad-y="1" stride="1,1,2,2" stride-x="2" stride-y="2"/>
			<input>
				<port id="0">
					<dim>1</dim>
					<dim>256</dim>
					<dim>38</dim>
					<dim>38</dim>
				</port>
			</input>
			<output>
				<port id="3">
					<dim>1</dim>
					<dim>256</dim>
					<dim>19</dim>
					<dim>19</dim>
				</port>
			</output>
			<blobs>
				<weights offset="5689170" size="4608"/>
				<biases offset="1775744" size="512"/>
			</blobs>
		</layer>
		<layer id="260" name="conv6/dw/relu" precision="FP16" type="ReLU">
			<data engine="caffe.ReLUParameter.DEFAULT" negative_slope="0.0"/>
			<input>
				<port id="0">
					<dim>1</dim>
					<dim>256</dim>
					<dim>19</dim>
					<dim>19</dim>
				</port>
			</input>
			<output>
				<port id="1">
					<dim>1</dim>
					<dim>256</dim>
					<dim>19</dim>
					<dim>19</dim>
				</port>
			</output>
		</layer>
		<layer id="59" name="conv6" precision="FP16" type="Convolution">
			<data dilation-x="1" dilation-y="1" group="1" kernel-x="1" kernel-y="1" output="512" pad-x="0" pad-y="0" stride="1,1,1,1" stride-x="1" stride-y="1"/>
			<input>
				<port id="0">
					<dim>1</dim>
					<dim>256</dim>
					<dim>19</dim>
					<dim>19</dim>
				</port>
			</input>
			<output>
				<port id="3">
					<dim>1</dim>
					<dim>512</dim>
					<dim>19</dim>
					<dim>19</dim>
				</port>
			</output>
			<blobs>
				<weights offset="18860" size="262144"/>
				<biases offset="4925308" size="1024"/>
			</blobs>
		</layer>
		<layer id="64" name="conv6/relu" precision="FP16" type="ReLU">
			<data engine="caffe.ReLUParameter.DEFAULT" negative_slope="0.0"/>
			<input>
				<port id="0">
					<dim>1</dim>
					<dim>512</dim>
					<dim>19</dim>
					<dim>19</dim>
				</port>
			</input>
			<output>
				<port id="1">
					<dim>1</dim>
					<dim>512</dim>
					<dim>19</dim>
					<dim>19</dim>
				</port>
			</output>
		</layer>
		<layer id="106" name="conv7/dw" precision="FP16" type="Convolution">
			<data dilation-x="1" dilation-y="1" group="512" kernel-x="3" kernel-y="3" output="512" pad-x="1" pad-y="1" stride="1,1,1,1" stride-x="1" stride-y="1"/>
			<input>
				<port id="0">
					<dim>1</dim>
					<dim>512</dim>
					<dim>19</dim>
					<dim>19</dim>
				</port>
			</input>
			<output>
				<port id="3">
					<dim>1</dim>
					<dim>512</dim>
					<dim>19</dim>
					<dim>19</dim>
				</port>
			</output>
			<blobs>
				<weights offset="9310914" size="9216"/>
				<biases offset="873220" size="1024"/>
			</blobs>
		</layer>
		<layer id="178" name="conv7/dw/relu" precision="FP16" type="ReLU">
			<data engine="caffe.ReLUParameter.DEFAULT" negative_slope="0.0"/>
			<input>
				<port id="0">
					<dim>1</dim>
					<dim>512</dim>
					<dim>19</dim>
					<dim>19</dim>
				</port>
			</input>
			<output>
				<port id="1">
					<dim>1</dim>
					<dim>512</dim>
					<dim>19</dim>
					<dim>19</dim>
				</port>
			</output>
		</layer>
		<layer id="211" name="conv7" precision="FP16" type="Convolution">
			<data dilation-x="1" dilation-y="1" group="1" kernel-x="1" kernel-y="1" output="512" pad-x="0" pad-y="0" stride="1,1,1,1" stride-x="1" stride-y="1"/>
			<input>
				<port id="0">
					<dim>1</dim>
					<dim>512</dim>
					<dim>19</dim>
					<dim>19</dim>
				</port>
			</input>
			<output>
				<port id="3">
					<dim>1</dim>
					<dim>512</dim>
					<dim>19</dim>
					<dim>19</dim>
				</port>
			</output>
			<blobs>
				<weights offset="2302080" size="524288"/>
				<biases offset="1625088" size="1024"/>
			</blobs>
		</layer>
		<layer id="324" name="conv7/relu" precision="FP16" type="ReLU">
			<data engine="caffe.ReLUParameter.DEFAULT" negative_slope="0.0"/>
			<input>
				<port id="0">
					<dim>1</dim>
					<dim>512</dim>
					<dim>19</dim>
					<dim>19</dim>
				</port>
			</input>
			<output>
				<port id="1">
					<dim>1</dim>
					<dim>512</dim>
					<dim>19</dim>
					<dim>19</dim>
				</port>
			</output>
		</layer>
		<layer id="86" name="conv8/dw" precision="FP16" type="Convolution">
			<data dilation-x="1" dilation-y="1" group="512" kernel-x="3" kernel-y="3" output="512" pad-x="1" pad-y="1" stride="1,1,1,1" stride-x="1" stride-y="1"/>
			<input>
				<port id="0">
					<dim>1</dim>
					<dim>512</dim>
					<dim>19</dim>
					<dim>19</dim>
				</port>
			</input>
			<output>
				<port id="3">
					<dim>1</dim>
					<dim>512</dim>
					<dim>19</dim>
					<dim>19</dim>
				</port>
			</output>
			<blobs>
				<weights offset="6218898" size="9216"/>
				<biases offset="4959932" size="1024"/>
			</blobs>
		</layer>
		<layer id="27" name="conv8/dw/relu" precision="FP16" type="ReLU">
			<data engine="caffe.ReLUParameter.DEFAULT" negative_slope="0.0"/>
			<input>
				<port id="0">
					<dim>1</dim>
					<dim>512</dim>
					<dim>19</dim>
					<dim>19</dim>
				</port>
			</input>
			<output>
				<port id="1">
					<dim>1</dim>
					<dim>512</dim>
					<dim>19</dim>
					<dim>19</dim>
				</port>
			</output>
		</layer>
		<layer id="152" name="conv8" precision="FP16" type="Convolution">
			<data dilation-x="1" dilation-y="1" group="1" kernel-x="1" kernel-y="1" output="512" pad-x="0" pad-y="0" stride="1,1,1,1" stride-x="1" stride-y="1"/>
			<input>
				<port id="0">
					<dim>1</dim>
					<dim>512</dim>
					<dim>19</dim>
					<dim>19</dim>
				</port>
			</input>
			<output>
				<port id="3">
					<dim>1</dim>
					<dim>512</dim>
					<dim>19</dim>
					<dim>19</dim>
				</port>
			</output>
			<blobs>
				<weights offset="5034684" size="524288"/>
				<biases offset="461016" size="1024"/>
			</blobs>
		</layer>
		<layer id="198" name="conv8/relu" precision="FP16" type="ReLU">
			<data engine="caffe.ReLUParameter.DEFAULT" negative_slope="0.0"/>
			<input>
				<port id="0">
					<dim>1</dim>
					<dim>512</dim>
					<dim>19</dim>
					<dim>19</dim>
				</port>
			</input>
			<output>
				<port id="1">
					<dim>1</dim>
					<dim>512</dim>
					<dim>19</dim>
					<dim>19</dim>
				</port>
			</output>
		</layer>
		<layer id="295" name="conv9/dw" precision="FP16" type="Convolution">
			<data dilation-x="1" dilation-y="1" group="512" kernel-x="3" kernel-y="3" output="512" pad-x="1" pad-y="1" stride="1,1,1,1" stride-x="1" stride-y="1"/>
			<input>
				<port id="0">
					<dim>1</dim>
					<dim>512</dim>
					<dim>19</dim>
					<dim>19</dim>
				</port>
			</input>
			<output>
				<port id="3">
					<dim>1</dim>
					<dim>512</dim>
					<dim>19</dim>
					<dim>19</dim>
				</port>
			</output>
			<blobs>
				<weights offset="9379138" size="9216"/>
				<biases offset="1624064" size="1024"/>
			</blobs>
		</layer>
		<layer id="20" name="conv9/dw/relu" precision="FP16" type="ReLU">
			<data engine="caffe.ReLUParameter.DEFAULT" negative_slope="0.0"/>
			<input>
				<port id="0">
					<dim>1</dim>
					<dim>512</dim>
					<dim>19</dim>
					<dim>19</dim>
				</port>
			</input>
			<output>
				<port id="1">
					<dim>1</dim>
					<dim>512</dim>
					<dim>19</dim>
					<dim>19</dim>
				</port>
			</output>
		</layer>
		<layer id="205" name="conv9" precision="FP16" type="Convolution">
			<data dilation-x="1" dilation-y="1" group="1" kernel-x="1" kernel-y="1" output="512" pad-x="0" pad-y="0" stride="1,1,1,1" stride-x="1" stride-y="1"/>
			<input>
				<port id="0">
					<dim>1</dim>
					<dim>512</dim>
					<dim>19</dim>
					<dim>19</dim>
				</port>
			</input>
			<output>
				<port id="3">
					<dim>1</dim>
					<dim>512</dim>
					<dim>19</dim>
					<dim>19</dim>
				</port>
			</output>
			<blobs>
				<weights offset="10515826" size="524288"/>
				<biases offset="281564" size="1024"/>
			</blobs>
		</layer>
		<layer id="109" name="conv9/relu" precision="FP16" type="ReLU">
			<data engine="caffe.ReLUParameter.DEFAULT" negative_slope="0.0"/>
			<input>
				<port id="0">
					<dim>1</dim>
					<dim>512</dim>
					<dim>19</dim>
					<dim>19</dim>
				</port>
			</input>
			<output>
				<port id="1">
					<dim>1</dim>
					<dim>512</dim>
					<dim>19</dim>
					<dim>19</dim>
				</port>
			</output>
		</layer>
		<layer id="319" name="conv10/dw" precision="FP16" type="Convolution">
			<data dilation-x="1" dilation-y="1" group="512" kernel-x="3" kernel-y="3" output="512" pad-x="1" pad-y="1" stride="1,1,1,1" stride-x="1" stride-y="1"/>
			<input>
				<port id="0">
					<dim>1</dim>
					<dim>512</dim>
					<dim>19</dim>
					<dim>19</dim>
				</port>
			</input>
			<output>
				<port id="3">
					<dim>1</dim>
					<dim>512</dim>
					<dim>19</dim>
					<dim>19</dim>
				</port>
			</output>
			<blobs>
				<weights offset="466184" size="9216"/>
				<biases offset="5559122" size="1024"/>
			</blobs>
		</layer>
		<layer id="270" name="conv10/dw/relu" precision="FP16" type="ReLU">
			<data engine="caffe.ReLUParameter.DEFAULT" negative_slope="0.0"/>
			<input>
				<port id="0">
					<dim>1</dim>
					<dim>512</dim>
					<dim>19</dim>
					<dim>19</dim>
				</port>
			</input>
			<output>
				<port id="1">
					<dim>1</dim>
					<dim>512</dim>
					<dim>19</dim>
					<dim>19</dim>
				</port>
			</output>
		</layer>
		<layer id="328" name="conv10" precision="FP16" type="Convolution">
			<data dilation-x="1" dilation-y="1" group="1" kernel-x="1" kernel-y="1" output="512" pad-x="0" pad-y="0" stride="1,1,1,1" stride-x="1" stride-y="1"/>
			<input>
				<port id="0">
					<dim>1</dim>
					<dim>512</dim>
					<dim>19</dim>
					<dim>19</dim>
				</port>
			</input>
			<output>
				<port id="3">
					<dim>1</dim>
					<dim>512</dim>
					<dim>19</dim>
					<dim>19</dim>
				</port>
			</output>
			<blobs>
				<weights offset="1777792" size="524288"/>
				<biases offset="9320130" size="1024"/>
			</blobs>
		</layer>
		<layer id="240" name="conv10/relu" precision="FP16" type="ReLU">
			<data engine="caffe.ReLUParameter.DEFAULT" negative_slope="0.0"/>
			<input>
				<port id="0">
					<dim>1</dim>
					<dim>512</dim>
					<dim>19</dim>
					<dim>19</dim>
				</port>
			</input>
			<output>
				<port id="1">
					<dim>1</dim>
					<dim>512</dim>
					<dim>19</dim>
					<dim>19</dim>
				</port>
			</output>
		</layer>
		<layer id="330" name="conv11/dw" precision="FP16" type="Convolution">
			<data dilation-x="1" dilation-y="1" group="512" kernel-x="3" kernel-y="3" output="512" pad-x="1" pad-y="1" stride="1,1,1,1" stride-x="1" stride-y="1"/>
			<input>
				<port id="0">
					<dim>1</dim>
					<dim>512</dim>
					<dim>19</dim>
					<dim>19</dim>
				</port>
			</input>
			<output>
				<port id="3">
					<dim>1</dim>
					<dim>512</dim>
					<dim>19</dim>
					<dim>19</dim>
				</port>
			</output>
			<blobs>
				<weights offset="799492" size="9216"/>
				<biases offset="4958908" size="1024"/>
			</blobs>
		</layer>
		<layer id="281" name="conv11/dw/relu" precision="FP16" type="ReLU">
			<data engine="caffe.ReLUParameter.DEFAULT" negative_slope="0.0"/>
			<input>
				<port id="0">
					<dim>1</dim>
					<dim>512</dim>
					<dim>19</dim>
					<dim>19</dim>
				</port>
			</input>
			<output>
				<port id="1">
					<dim>1</dim>
					<dim>512</dim>
					<dim>19</dim>
					<dim>19</dim>
				</port>
			</output>
		</layer>
		<layer id="166" name="conv11" precision="FP16" type="Convolution">
			<data dilation-x="1" dilation-y="1" group="1" kernel-x="1" kernel-y="1" output="512" pad-x="0" pad-y="0" stride="1,1,1,1" stride-x="1" stride-y="1"/>
			<input>
				<port id="0">
					<dim>1</dim>
					<dim>512</dim>
					<dim>19</dim>
					<dim>19</dim>
				</port>
			</input>
			<output>
				<port id="3">
					<dim>1</dim>
					<dim>512</dim>
					<dim>19</dim>
					<dim>19</dim>
				</port>
			</output>
			<blobs>
				<weights offset="11042546" size="524288"/>
				<biases offset="11180" size="1024"/>
			</blobs>
		</layer>
		<layer id="302" name="conv11/relu" precision="FP16" type="ReLU">
			<data engine="caffe.ReLUParameter.DEFAULT" negative_slope="0.0"/>
			<input>
				<port id="0">
					<dim>1</dim>
					<dim>512</dim>
					<dim>19</dim>
					<dim>19</dim>
				</port>
			</input>
			<output>
				<port id="1">
					<dim>1</dim>
					<dim>512</dim>
					<dim>19</dim>
					<dim>19</dim>
				</port>
			</output>
		</layer>
		<layer id="273" name="conv11_mbox_priorbox" precision="FP16" type="PriorBox">
			<data aspect_ratio="2.0" clip="0" flip="1" max_size="" min_size="60.0" offset="0.5" variance="0.10000000149011612,0.10000000149011612,0.20000000298023224,0.20000000298023224"/>
			<input>
				<port id="0">
					<dim>1</dim>
					<dim>512</dim>
					<dim>19</dim>
					<dim>19</dim>
				</port>
				<port id="1">
					<dim>1</dim>
					<dim>3</dim>
					<dim>300</dim>
					<dim>300</dim>
				</port>
			</input>
			<output>
				<port id="2">
					<dim>1</dim>
					<dim>2</dim>
					<dim>4332</dim>
				</port>
			</output>
		</layer>
		<layer id="12" name="conv11_mbox_conf" precision="FP16" type="Convolution">
			<data dilation-x="1" dilation-y="1" group="1" kernel-x="1" kernel-y="1" output="63" pad-x="0" pad-y="0" stride="1,1,1,1" stride-x="1" stride-y="1"/>
			<input>
				<port id="0">
					<dim>1</dim>
					<dim>512</dim>
					<dim>19</dim>
					<dim>19</dim>
				</port>
			</input>
			<output>
				<port id="3">
					<dim>1</dim>
					<dim>63</dim>
					<dim>19</dim>
					<dim>19</dim>
				</port>
			</output>
			<blobs>
				<weights offset="808708" size="64512"/>
				<biases offset="5558996" size="126"/>
			</blobs>
		</layer>
		<layer id="136" name="conv11_mbox_conf_perm" precision="FP16" type="Permute">
			<data order="0,2,3,1"/>
			<input>
				<port id="0">
					<dim>1</dim>
					<dim>63</dim>
					<dim>19</dim>
					<dim>19</dim>
				</port>
			</input>
			<output>
				<port id="1">
					<dim>1</dim>
					<dim>19</dim>
					<dim>19</dim>
					<dim>63</dim>
				</port>
			</output>
		</layer>
		<layer id="199" name="conv11_mbox_conf_flat" precision="FP16" type="Flatten">
			<data axis="1"/>
			<input>
				<port id="0">
					<dim>1</dim>
					<dim>19</dim>
					<dim>19</dim>
					<dim>63</dim>
				</port>
			</input>
			<output>
				<port id="1">
					<dim>1</dim>
					<dim>22743</dim>
				</port>
			</output>
		</layer>
		<layer id="294" name="conv11_mbox_loc" precision="FP16" type="Convolution">
			<data dilation-x="1" dilation-y="1" group="1" kernel-x="1" kernel-y="1" output="12" pad-x="0" pad-y="0" stride="1,1,1,1" stride-x="1" stride-y="1"/>
			<input>
				<port id="0">
					<dim>1</dim>
					<dim>512</dim>
					<dim>19</dim>
					<dim>19</dim>
				</port>
			</input>
			<output>
				<port id="3">
					<dim>1</dim>
					<dim>12</dim>
					<dim>19</dim>
					<dim>19</dim>
				</port>
			</output>
			<blobs>
				<weights offset="1611776" size="12288"/>
				<biases offset="5558972" size="24"/>
			</blobs>
		</layer>
		<layer id="278" name="conv11_mbox_loc_perm" precision="FP16" type="Permute">
			<data order="0,2,3,1"/>
			<input>
				<port id="0">
					<dim>1</dim>
					<dim>12</dim>
					<dim>19</dim>
					<dim>19</dim>
				</port>
			</input>
			<output>
				<port id="1">
					<dim>1</dim>
					<dim>19</dim>
					<dim>19</dim>
					<dim>12</dim>
				</port>
			</output>
		</layer>
		<layer id="242" name="conv11_mbox_loc_flat" precision="FP16" type="Flatten">
			<data axis="1"/>
			<input>
				<port id="0">
					<dim>1</dim>
					<dim>19</dim>
					<dim>19</dim>
					<dim>12</dim>
				</port>
			</input>
			<output>
				<port id="1">
					<dim>1</dim>
					<dim>4332</dim>
				</port>
			</output>
		</layer>
		<layer id="159" name="conv12/dw" precision="FP16" type="Convolution">
			<data dilation-x="1" dilation-y="1" group="512" kernel-x="3" kernel-y="3" output="512" pad-x="1" pad-y="1" stride="1,1,2,2" stride-x="2" stride-y="2"/>
			<input>
				<port id="0">
					<dim>1</dim>
					<dim>512</dim>
					<dim>19</dim>
					<dim>19</dim>
				</port>
			</input>
			<output>
				<port id="3">
					<dim>1</dim>
					<dim>512</dim>
					<dim>10</dim>
					<dim>10</dim>
				</port>
			</output>
			<blobs>
				<weights offset="1964" size="9216"/>
				<biases offset="4923772" size="1024"/>
			</blobs>
		</layer>
		<layer id="268" name="conv12/dw/relu" precision="FP16" type="ReLU">
			<data engine="caffe.ReLUParameter.DEFAULT" negative_slope="0.0"/>
			<input>
				<port id="0">
					<dim>1</dim>
					<dim>512</dim>
					<dim>10</dim>
					<dim>10</dim>
				</port>
			</input>
			<output>
				<port id="1">
					<dim>1</dim>
					<dim>512</dim>
					<dim>10</dim>
					<dim>10</dim>
				</port>
			</output>
		</layer>
		<layer id="321" name="conv12" precision="FP16" type="Convolution">
			<data dilation-x="1" dilation-y="1" group="1" kernel-x="1" kernel-y="1" output="1024" pad-x="0" pad-y="0" stride="1,1,1,1" stride-x="1" stride-y="1"/>
			<input>
				<port id="0">
					<dim>1</dim>
					<dim>512</dim>
					<dim>10</dim>
					<dim>10</dim>
				</port>
			</input>
			<output>
				<port id="3">
					<dim>1</dim>
					<dim>1024</dim>
					<dim>10</dim>
					<dim>10</dim>
				</port>
			</output>
			<blobs>
				<weights offset="9402434" size="1048576"/>
				<biases offset="12204" size="2048"/>
			</blobs>
		</layer>
		<layer id="111" name="conv12/relu" precision="FP16" type="ReLU">
			<data engine="caffe.ReLUParameter.DEFAULT" negative_slope="0.0"/>
			<input>
				<port id="0">
					<dim>1</dim>
					<dim>1024</dim>
					<dim>10</dim>
					<dim>10</dim>
				</port>
			</input>
			<output>
				<port id="1">
					<dim>1</dim>
					<dim>1024</dim>
					<dim>10</dim>
					<dim>10</dim>
				</port>
			</output>
		</layer>
		<layer id="67" name="conv13/dw" precision="FP16" type="Convolution">
			<data dilation-x="1" dilation-y="1" group="1024" kernel-x="3" kernel-y="3" output="1024" pad-x="1" pad-y="1" stride="1,1,1,1" stride-x="1" stride-y="1"/>
			<input>
				<port id="0">
					<dim>1</dim>
					<dim>1024</dim>
					<dim>10</dim>
					<dim>10</dim>
				</port>
			</input>
			<output>
				<port id="3">
					<dim>1</dim>
					<dim>1024</dim>
					<dim>10</dim>
					<dim>10</dim>
				</port>
			</output>
			<blobs>
				<weights offset="1756160" size="18432"/>
				<biases offset="282588" size="2048"/>
			</blobs>
		</layer>
		<layer id="29" name="conv13/dw/relu" precision="FP16" type="ReLU">
			<data engine="caffe.ReLUParameter.DEFAULT" negative_slope="0.0"/>
			<input>
				<port id="0">
					<dim>1</dim>
					<dim>1024</dim>
					<dim>10</dim>
					<dim>10</dim>
				</port>
			</input>
			<output>
				<port id="1">
					<dim>1</dim>
					<dim>1024</dim>
					<dim>10</dim>
					<dim>10</dim>
				</port>
			</output>
		</layer>
		<layer id="243" name="conv13" precision="FP16" type="Convolution">
			<data dilation-x="1" dilation-y="1" group="1" kernel-x="1" kernel-y="1" output="1024" pad-x="0" pad-y="0" stride="1,1,1,1" stride-x="1" stride-y="1"/>
			<input>
				<port id="0">
					<dim>1</dim>
					<dim>1024</dim>
					<dim>10</dim>
					<dim>10</dim>
				</port>
			</input>
			<output>
				<port id="3">
					<dim>1</dim>
					<dim>1024</dim>
					<dim>10</dim>
					<dim>10</dim>
				</port>
			</output>
			<blobs>
				<weights offset="2826620" size="2097152"/>
				<biases offset="6228114" size="2048"/>
			</blobs>
		</layer>
		<layer id="28" name="conv13/relu" precision="FP16" type="ReLU">
			<data engine="caffe.ReLUParameter.DEFAULT" negative_slope="0.0"/>
			<input>
				<port id="0">
					<dim>1</dim>
					<dim>1024</dim>
					<dim>10</dim>
					<dim>10</dim>
				</port>
			</input>
			<output>
				<port id="1">
					<dim>1</dim>
					<dim>1024</dim>
					<dim>10</dim>
					<dim>10</dim>
				</port>
			</output>
		</layer>
		<layer id="97" name="conv13_mbox_loc" precision="FP16" type="Convolution">
			<data dilation-x="1" dilation-y="1" group="1" kernel-x="1" kernel-y="1" output="24" pad-x="0" pad-y="0" stride="1,1,1,1" stride-x="1" stride-y="1"/>
			<input>
				<port id="0">
					<dim>1</dim>
					<dim>1024</dim>
					<dim>10</dim>
					<dim>10</dim>
				</port>
			</input>
			<output>
				<port id="3">
					<dim>1</dim>
					<dim>24</dim>
					<dim>10</dim>
					<dim>10</dim>
				</port>
			</output>
			<blobs>
				<weights offset="4960956" size="49152"/>
				<biases offset="281004" size="48"/>
			</blobs>
		</layer>
		<layer id="95" name="conv13_mbox_loc_perm" precision="FP16" type="Permute">
			<data order="0,2,3,1"/>
			<input>
				<port id="0">
					<dim>1</dim>
					<dim>24</dim>
					<dim>10</dim>
					<dim>10</dim>
				</port>
			</input>
			<output>
				<port id="1">
					<dim>1</dim>
					<dim>10</dim>
					<dim>10</dim>
					<dim>24</dim>
				</port>
			</output>
		</layer>
		<layer id="170" name="conv13_mbox_loc_flat" precision="FP16" type="Flatten">
			<data axis="1"/>
			<input>
				<port id="0">
					<dim>1</dim>
					<dim>10</dim>
					<dim>10</dim>
					<dim>24</dim>
				</port>
			</input>
			<output>
				<port id="1">
					<dim>1</dim>
					<dim>2400</dim>
				</port>
			</output>
		</layer>
		<layer id="34" name="conv14_1" precision="FP16" type="Convolution">
			<data dilation-x="1" dilation-y="1" group="1" kernel-x="1" kernel-y="1" output="256" pad-x="0" pad-y="0" stride="1,1,1,1" stride-x="1" stride-y="1"/>
			<input>
				<port id="0">
					<dim>1</dim>
					<dim>1024</dim>
					<dim>10</dim>
					<dim>10</dim>
				</port>
			</input>
			<output>
				<port id="3">
					<dim>1</dim>
					<dim>256</dim>
					<dim>10</dim>
					<dim>10</dim>
				</port>
			</output>
			<blobs>
				<weights offset="5694610" size="524288"/>
				<biases offset="1774592" size="512"/>
			</blobs>
		</layer>
		<layer id="213" name="conv14_1/relu" precision="FP16" type="ReLU">
			<data engine="caffe.ReLUParameter.DEFAULT" negative_slope="0.0"/>
			<input>
				<port id="0">
					<dim>1</dim>
					<dim>256</dim>
					<dim>10</dim>
					<dim>10</dim>
				</port>
			</input>
			<output>
				<port id="1">
					<dim>1</dim>
					<dim>256</dim>
					<dim>10</dim>
					<dim>10</dim>
				</port>
			</output>
		</layer>
		<layer id="13" name="conv14_2" precision="FP16" type="Convolution">
			<data dilation-x="1" dilation-y="1" group="1" kernel-x="3" kernel-y="3" output="512" pad-x="1" pad-y="1" stride="1,1,2,2" stride-x="2" stride-y="2"/>
			<input>
				<port id="0">
					<dim>1</dim>
					<dim>256</dim>
					<dim>10</dim>
					<dim>10</dim>
				</port>
			</input>
			<output>
				<port id="3">
					<dim>1</dim>
					<dim>512</dim>
					<dim>5</dim>
					<dim>5</dim>
				</port>
			</output>
			<blobs>
				<weights offset="6951362" size="2359296"/>
				<biases offset="1776256" size="1024"/>
			</blobs>
		</layer>
		<layer id="57" name="conv14_2/relu" precision="FP16" type="ReLU">
			<data engine="caffe.ReLUParameter.DEFAULT" negative_slope="0.0"/>
			<input>
				<port id="0">
					<dim>1</dim>
					<dim>512</dim>
					<dim>5</dim>
					<dim>5</dim>
				</port>
			</input>
			<output>
				<port id="1">
					<dim>1</dim>
					<dim>512</dim>
					<dim>5</dim>
					<dim>5</dim>
				</port>
			</output>
		</layer>
		<layer id="202" name="conv15_1" precision="FP16" type="Convolution">
			<data dilation-x="1" dilation-y="1" group="1" kernel-x="1" kernel-y="1" output="128" pad-x="0" pad-y="0" stride="1,1,1,1" stride-x="1" stride-y="1"/>
			<input>
				<port id="0">
					<dim>1</dim>
					<dim>512</dim>
					<dim>5</dim>
					<dim>5</dim>
				</port>
			</input>
			<output>
				<port id="3">
					<dim>1</dim>
					<dim>128</dim>
					<dim>5</dim>
					<dim>5</dim>
				</port>
			</output>
			<blobs>
				<weights offset="6230162" size="131072"/>
				<biases offset="475400" size="256"/>
			</blobs>
		</layer>
		<layer id="26" name="conv15_1/relu" precision="FP16" type="ReLU">
			<data engine="caffe.ReLUParameter.DEFAULT" negative_slope="0.0"/>
			<input>
				<port id="0">
					<dim>1</dim>
					<dim>128</dim>
					<dim>5</dim>
					<dim>5</dim>
				</port>
			</input>
			<output>
				<port id="1">
					<dim>1</dim>
					<dim>128</dim>
					<dim>5</dim>
					<dim>5</dim>
				</port>
			</output>
		</layer>
		<layer id="53" name="conv15_2" precision="FP16" type="Convolution">
			<data dilation-x="1" dilation-y="1" group="1" kernel-x="3" kernel-y="3" output="256" pad-x="1" pad-y="1" stride="1,1,2,2" stride-x="2" stride-y="2"/>
			<input>
				<port id="0">
					<dim>1</dim>
					<dim>128</dim>
					<dim>5</dim>
					<dim>5</dim>
				</port>
			</input>
			<output>
				<port id="3">
					<dim>1</dim>
					<dim>256</dim>
					<dim>3</dim>
					<dim>3</dim>
				</port>
			</output>
			<blobs>
				<weights offset="874244" size="589824"/>
				<biases offset="1777280" size="512"/>
			</blobs>
		</layer>
		<layer id="11" name="conv15_2/relu" precision="FP16" type="ReLU">
			<data engine="caffe.ReLUParameter.DEFAULT" negative_slope="0.0"/>
			<input>
				<port id="0">
					<dim>1</dim>
					<dim>256</dim>
					<dim>3</dim>
					<dim>3</dim>
				</port>
			</input>
			<output>
				<port id="1">
					<dim>1</dim>
					<dim>256</dim>
					<dim>3</dim>
					<dim>3</dim>
				</port>
			</output>
		</layer>
		<layer id="195" name="conv15_2_mbox_conf" precision="FP16" type="Convolution">
			<data dilation-x="1" dilation-y="1" group="1" kernel-x="1" kernel-y="1" output="126" pad-x="0" pad-y="0" stride="1,1,1,1" stride-x="1" stride-y="1"/>
			<input>
				<port id="0">
					<dim>1</dim>
					<dim>256</dim>
					<dim>3</dim>
					<dim>3</dim>
				</port>
			</input>
			<output>
				<port id="3">
					<dim>1</dim>
					<dim>126</dim>
					<dim>3</dim>
					<dim>3</dim>
				</port>
			</output>
			<blobs>
				<weights offset="10451266" size="64512"/>
				<biases offset="799240" size="252"/>
			</blobs>
		</layer>
		<layer id="99" name="conv15_2_mbox_conf_perm" precision="FP16" type="Permute">
			<data order="0,2,3,1"/>
			<input>
				<port id="0">
					<dim>1</dim>
					<dim>126</dim>
					<dim>3</dim>
					<dim>3</dim>
				</port>
			</input>
			<output>
				<port id="1">
					<dim>1</dim>
					<dim>3</dim>
					<dim>3</dim>
					<dim>126</dim>
				</port>
			</output>
		</layer>
		<layer id="245" name="conv15_2_mbox_conf_flat" precision="FP16" type="Flatten">
			<data axis="1"/>
			<input>
				<port id="0">
					<dim>1</dim>
					<dim>3</dim>
					<dim>3</dim>
					<dim>126</dim>
				</port>
			</input>
			<output>
				<port id="1">
					<dim>1</dim>
					<dim>1134</dim>
				</port>
			</output>
		</layer>
		<layer id="196" name="conv15_2_mbox_priorbox" precision="FP16" type="PriorBox">
			<data aspect_ratio="2.0,3.0" clip="0" flip="1" max_size="240.0" min_size="195.0" offset="0.5" variance="0.10000000149011612,0.10000000149011612,0.20000000298023224,0.20000000298023224"/>
			<input>
				<port id="0">
					<dim>1</dim>
					<dim>256</dim>
					<dim>3</dim>
					<dim>3</dim>
				</port>
				<port id="1">
					<dim>1</dim>
					<dim>3</dim>
					<dim>300</dim>
					<dim>300</dim>
				</port>
			</input>
			<output>
				<port id="2">
					<dim>1</dim>
					<dim>2</dim>
					<dim>216</dim>
				</port>
			</output>
		</layer>
		<layer id="85" name="conv16_1" precision="FP16" type="Convolution">
			<data dilation-x="1" dilation-y="1" group="1" kernel-x="1" kernel-y="1" output="128" pad-x="0" pad-y="0" stride="1,1,1,1" stride-x="1" stride-y="1"/>
			<input>
				<port id="0">
					<dim>1</dim>
					<dim>256</dim>
					<dim>3</dim>
					<dim>3</dim>
				</port>
			</input>
			<output>
				<port id="3">
					<dim>1</dim>
					<dim>128</dim>
					<dim>3</dim>
					<dim>3</dim>
				</port>
			</output>
			<blobs>
				<weights offset="1690624" size="65536"/>
				<biases offset="4958588" size="256"/>
			</blobs>
		</layer>
		<layer id="31" name="conv16_1/relu" precision="FP16" type="ReLU">
			<data engine="caffe.ReLUParameter.DEFAULT" negative_slope="0.0"/>
			<input>
				<port id="0">
					<dim>1</dim>
					<dim>128</dim>
					<dim>3</dim>
					<dim>3</dim>
				</port>
			</input>
			<output>
				<port id="1">
					<dim>1</dim>
					<dim>128</dim>
					<dim>3</dim>
					<dim>3</dim>
				</port>
			</output>
		</layer>
		<layer id="81" name="conv16_2" precision="FP16" type="Convolution">
			<data dilation-x="1" dilation-y="1" group="1" kernel-x="3" kernel-y="3" output="256" pad-x="1" pad-y="1" stride="1,1,2,2" stride-x="2" stride-y="2"/>
			<input>
				<port id="0">
					<dim>1</dim>
					<dim>128</dim>
					<dim>3</dim>
					<dim>3</dim>
				</port>
			</input>
			<output>
				<port id="3">
					<dim>1</dim>
					<dim>256</dim>
					<dim>2</dim>
					<dim>2</dim>
				</port>
			</output>
			<blobs>
				<weights offset="6361490" size="589824"/>
				<biases offset="281052" size="512"/>
			</blobs>
		</layer>
		<layer id="35" name="conv16_2/relu" precision="FP16" type="ReLU">
			<data engine="caffe.ReLUParameter.DEFAULT" negative_slope="0.0"/>
			<input>
				<port id="0">
					<dim>1</dim>
					<dim>256</dim>
					<dim>2</dim>
					<dim>2</dim>
				</port>
			</input>
			<output>
				<port id="1">
					<dim>1</dim>
					<dim>256</dim>
					<dim>2</dim>
					<dim>2</dim>
				</port>
			</output>
		</layer>
		<layer id="80" name="conv16_2_mbox_priorbox" precision="FP16" type="PriorBox">
			<data aspect_ratio="2.0,3.0" clip="0" flip="1" max_size="285.0" min_size="240.0" offset="0.5" variance="0.10000000149011612,0.10000000149011612,0.20000000298023224,0.20000000298023224"/>
			<input>
				<port id="0">
					<dim>1</dim>
					<dim>256</dim>
					<dim>2</dim>
					<dim>2</dim>
				</port>
				<port id="1">
					<dim>1</dim>
					<dim>3</dim>
					<dim>300</dim>
					<dim>300</dim>
				</port>
			</input>
			<output>
				<port id="2">
					<dim>1</dim>
					<dim>2</dim>
					<dim>96</dim>
				</port>
			</output>
		</layer>
		<layer id="90" name="conv16_2_mbox_loc" precision="FP16" type="Convolution">
			<data dilation-x="1" dilation-y="1" group="1" kernel-x="1" kernel-y="1" output="24" pad-x="0" pad-y="0" stride="1,1,1,1" stride-x="1" stride-y="1"/>
			<input>
				<port id="0">
					<dim>1</dim>
					<dim>256</dim>
					<dim>2</dim>
					<dim>2</dim>
				</port>
			</input>
			<output>
				<port id="3">
					<dim>1</dim>
					<dim>24</dim>
					<dim>2</dim>
					<dim>2</dim>
				</port>
			</output>
			<blobs>
				<weights offset="9388418" size="12288"/>
				<biases offset="6951314" size="48"/>
			</blobs>
		</layer>
		<layer id="167" name="conv16_2_mbox_loc_perm" precision="FP16" type="Permute">
			<data order="0,2,3,1"/>
			<input>
				<port id="0">
					<dim>1</dim>
					<dim>24</dim>
					<dim>2</dim>
					<dim>2</dim>
				</port>
			</input>
			<output>
				<port id="1">
					<dim>1</dim>
					<dim>2</dim>
					<dim>2</dim>
					<dim>24</dim>
				</port>
			</output>
		</layer>
		<layer id="300" name="conv16_2_mbox_loc_flat" precision="FP16" type="Flatten">
			<data axis="1"/>
			<input>
				<port id="0">
					<dim>1</dim>
					<dim>2</dim>
					<dim>2</dim>
					<dim>24</dim>
				</port>
			</input>
			<output>
				<port id="1">
					<dim>1</dim>
					<dim>96</dim>
				</port>
			</output>
		</layer>
		<layer id="293" name="conv16_2_mbox_conf" precision="FP16" type="Convolution">
			<data dilation-x="1" dilation-y="1" group="1" kernel-x="1" kernel-y="1" output="126" pad-x="0" pad-y="0" stride="1,1,1,1" stride-x="1" stride-y="1"/>
			<input>
				<port id="0">
					<dim>1</dim>
					<dim>256</dim>
					<dim>2</dim>
					<dim>2</dim>
				</port>
			</input>
			<output>
				<port id="3">
					<dim>1</dim>
					<dim>126</dim>
					<dim>2</dim>
					<dim>2</dim>
				</port>
			</output>
			<blobs>
				<weights offset="1626112" size="64512"/>
				<biases offset="1464068" size="252"/>
			</blobs>
		</layer>
		<layer id="118" name="conv16_2_mbox_conf_perm" precision="FP16" type="Permute">
			<data order="0,2,3,1"/>
			<input>
				<port id="0">
					<dim>1</dim>
					<dim>126</dim>
					<dim>2</dim>
					<dim>2</dim>
				</port>
			</input>
			<output>
				<port id="1">
					<dim>1</dim>
					<dim>2</dim>
					<dim>2</dim>
					<dim>126</dim>
				</port>
			</output>
		</layer>
		<layer id="272" name="conv16_2_mbox_conf_flat" precision="FP16" type="Flatten">
			<data axis="1"/>
			<input>
				<port id="0">
					<dim>1</dim>
					<dim>2</dim>
					<dim>2</dim>
					<dim>126</dim>
				</port>
			</input>
			<output>
				<port id="1">
					<dim>1</dim>
					<dim>504</dim>
				</port>
			</output>
		</layer>
		<layer id="62" name="conv17_1" precision="FP16" type="Convolution">
			<data dilation-x="1" dilation-y="1" group="1" kernel-x="1" kernel-y="1" output="64" pad-x="0" pad-y="0" stride="1,1,1,1" stride-x="1" stride-y="1"/>
			<input>
				<port id="0">
					<dim>1</dim>
					<dim>256</dim>
					<dim>2</dim>
					<dim>2</dim>
				</port>
			</input>
			<output>
				<port id="3">
					<dim>1</dim>
					<dim>64</dim>
					<dim>2</dim>
					<dim>2</dim>
				</port>
			</output>
			<blobs>
				<weights offset="9321154" size="32768"/>
				<biases offset="1775104" size="128"/>
			</blobs>
		</layer>
		<layer id="116" name="conv17_1/relu" precision="FP16" type="ReLU">
			<data engine="caffe.ReLUParameter.DEFAULT" negative_slope="0.0"/>
			<input>
				<port id="0">
					<dim>1</dim>
					<dim>64</dim>
					<dim>2</dim>
					<dim>2</dim>
				</port>
			</input>
			<output>
				<port id="1">
					<dim>1</dim>
					<dim>64</dim>
					<dim>2</dim>
					<dim>2</dim>
				</port>
			</output>
		</layer>
		<layer id="91" name="conv17_2" precision="FP16" type="Convolution">
			<data dilation-x="1" dilation-y="1" group="1" kernel-x="3" kernel-y="3" output="128" pad-x="1" pad-y="1" stride="1,1,2,2" stride-x="2" stride-y="2"/>
			<input>
				<port id="0">
					<dim>1</dim>
					<dim>64</dim>
					<dim>2</dim>
					<dim>2</dim>
				</port>
			</input>
			<output>
				<port id="3">
					<dim>1</dim>
					<dim>128</dim>
					<dim>1</dim>
					<dim>1</dim>
				</port>
			</output>
			<blobs>
				<weights offset="1464320" size="147456"/>
				<biases offset="5693778" size="256"/>
			</blobs>
		</layer>
		<layer id="255" name="conv17_2/relu" precision="FP16" type="ReLU">
			<data engine="caffe.ReLUParameter.DEFAULT" negative_slope="0.0"/>
			<input>
				<port id="0">
					<dim>1</dim>
					<dim>128</dim>
					<dim>1</dim>
					<dim>1</dim>
				</port>
			</input>
			<output>
				<port id="1">
					<dim>1</dim>
					<dim>128</dim>
					<dim>1</dim>
					<dim>1</dim>
				</port>
			</output>
		</layer>
		<layer id="104" name="conv17_2_mbox_loc" precision="FP16" type="Convolution">
			<data dilation-x="1" dilation-y="1" group="1" kernel-x="1" kernel-y="1" output="24" pad-x="0" pad-y="0" stride="1,1,1,1" stride-x="1" stride-y="1"/>
			<input>
				<port id="0">
					<dim>1</dim>
					<dim>128</dim>
					<dim>1</dim>
					<dim>1</dim>
				</port>
			</input>
			<output>
				<port id="3">
					<dim>1</dim>
					<dim>24</dim>
					<dim>1</dim>
					<dim>1</dim>
				</port>
			</output>
			<blobs>
				<weights offset="9353922" size="6144"/>
				<biases offset="252" size="48"/>
			</blobs>
		</layer>
		<layer id="248" name="conv17_2_mbox_loc_perm" precision="FP16" type="Permute">
			<data order="0,2,3,1"/>
			<input>
				<port id="0">
					<dim>1</dim>
					<dim>24</dim>
					<dim>1</dim>
					<dim>1</dim>
				</port>
			</input>
			<output>
				<port id="1">
					<dim>1</dim>
					<dim>1</dim>
					<dim>1</dim>
					<dim>24</dim>
				</port>
			</output>
		</layer>
		<layer id="191" name="conv17_2_mbox_loc_flat" precision="FP16" type="Flatten">
			<data axis="1"/>
			<input>
				<port id="0">
					<dim>1</dim>
					<dim>1</dim>
					<dim>1</dim>
					<dim>24</dim>
				</port>
			</input>
			<output>
				<port id="1">
					<dim>1</dim>
					<dim>24</dim>
				</port>
			</output>
		</layer>
		<layer id="148" name="conv17_2_mbox_conf" precision="FP16" type="Convolution">
			<data dilation-x="1" dilation-y="1" group="1" kernel-x="1" kernel-y="1" output="126" pad-x="0" pad-y="0" stride="1,1,1,1" stride-x="1" stride-y="1"/>
			<input>
				<port id="0">
					<dim>1</dim>
					<dim>128</dim>
					<dim>1</dim>
					<dim>1</dim>
				</port>
			</input>
			<output>
				<port id="3">
					<dim>1</dim>
					<dim>126</dim>
					<dim>1</dim>
					<dim>1</dim>
				</port>
			</output>
			<blobs>
				<weights offset="4926332" size="32256"/>
				<biases offset="2826368" size="252"/>
			</blobs>
		</layer>
		<layer id="130" name="conv17_2_mbox_conf_perm" precision="FP16" type="Permute">
			<data order="0,2,3,1"/>
			<input>
				<port id="0">
					<dim>1</dim>
					<dim>126</dim>
					<dim>1</dim>
					<dim>1</dim>
				</port>
			</input>
			<output>
				<port id="1">
					<dim>1</dim>
					<dim>1</dim>
					<dim>1</dim>
					<dim>126</dim>
				</port>
			</output>
		</layer>
		<layer id="147" name="conv17_2_mbox_conf_flat" precision="FP16" type="Flatten">
			<data axis="1"/>
			<input>
				<port id="0">
					<dim>1</dim>
					<dim>1</dim>
					<dim>1</dim>
					<dim>126</dim>
				</port>
			</input>
			<output>
				<port id="1">
					<dim>1</dim>
					<dim>126</dim>
				</port>
			</output>
		</layer>
		<layer id="156" name="conv17_2_mbox_priorbox" precision="FP16" type="PriorBox">
			<data aspect_ratio="2.0,3.0" clip="0" flip="1" max_size="300.0" min_size="285.0" offset="0.5" variance="0.10000000149011612,0.10000000149011612,0.20000000298023224,0.20000000298023224"/>
			<input>
				<port id="0">
					<dim>1</dim>
					<dim>128</dim>
					<dim>1</dim>
					<dim>1</dim>
				</port>
				<port id="1">
					<dim>1</dim>
					<dim>3</dim>
					<dim>300</dim>
					<dim>300</dim>
				</port>
			</input>
			<output>
				<port id="2">
					<dim>1</dim>
					<dim>2</dim>
					<dim>24</dim>
				</port>
			</output>
		</layer>
		<layer id="182" name="conv15_2_mbox_loc" precision="FP16" type="Convolution">
			<data dilation-x="1" dilation-y="1" group="1" kernel-x="1" kernel-y="1" output="24" pad-x="0" pad-y="0" stride="1,1,1,1" stride-x="1" stride-y="1"/>
			<input>
				<port id="0">
					<dim>1</dim>
					<dim>256</dim>
					<dim>3</dim>
					<dim>3</dim>
				</port>
			</input>
			<output>
				<port id="3">
					<dim>1</dim>
					<dim>24</dim>
					<dim>3</dim>
					<dim>3</dim>
				</port>
			</output>
			<blobs>
				<weights offset="415960" size="12288"/>
				<biases offset="462040" size="48"/>
			</blobs>
		</layer>
		<layer id="153" name="conv15_2_mbox_loc_perm" precision="FP16" type="Permute">
			<data order="0,2,3,1"/>
			<input>
				<port id="0">
					<dim>1</dim>
					<dim>24</dim>
					<dim>3</dim>
					<dim>3</dim>
				</port>
			</input>
			<output>
				<port id="1">
					<dim>1</dim>
					<dim>3</dim>
					<dim>3</dim>
					<dim>24</dim>
				</port>
			</output>
		</layer>
		<layer id="17" name="conv15_2_mbox_loc_flat" precision="FP16" type="Flatten">
			<data axis="1"/>
			<input>
				<port id="0">
					<dim>1</dim>
					<dim>3</dim>
					<dim>3</dim>
					<dim>24</dim>
				</port>
			</input>
			<output>
				<port id="1">
					<dim>1</dim>
					<dim>216</dim>
				</port>
			</output>
		</layer>
		<layer id="108" name="conv14_2_mbox_conf" precision="FP16" type="Convolution">
			<data dilation-x="1" dilation-y="1" group="1" kernel-x="1" kernel-y="1" output="126" pad-x="0" pad-y="0" stride="1,1,1,1" stride-x="1" stride-y="1"/>
			<input>
				<port id="0">
					<dim>1</dim>
					<dim>512</dim>
					<dim>5</dim>
					<dim>5</dim>
				</port>
			</input>
			<output>
				<port id="3">
					<dim>1</dim>
					<dim>126</dim>
					<dim>5</dim>
					<dim>5</dim>
				</port>
			</output>
			<blobs>
				<weights offset="5560146" size="129024"/>
				<biases offset="0" size="252"/>
			</blobs>
		</layer>
		<layer id="133" name="conv14_2_mbox_conf_perm" precision="FP16" type="Permute">
			<data order="0,2,3,1"/>
			<input>
				<port id="0">
					<dim>1</dim>
					<dim>126</dim>
					<dim>5</dim>
					<dim>5</dim>
				</port>
			</input>
			<output>
				<port id="1">
					<dim>1</dim>
					<dim>5</dim>
					<dim>5</dim>
					<dim>126</dim>
				</port>
			</output>
		</layer>
		<layer id="171" name="conv14_2_mbox_conf_flat" precision="FP16" type="Flatten">
			<data axis="1"/>
			<input>
				<port id="0">
					<dim>1</dim>
					<dim>5</dim>
					<dim>5</dim>
					<dim>126</dim>
				</port>
			</input>
			<output>
				<port id="1">
					<dim>1</dim>
					<dim>3150</dim>
				</port>
			</output>
		</layer>
		<layer id="114" name="conv14_2_mbox_priorbox" precision="FP16" type="PriorBox">
			<data aspect_ratio="2.0,3.0" clip="0" flip="1" max_size="195.0" min_size="150.0" offset="0.5" variance="0.10000000149011612,0.10000000149011612,0.20000000298023224,0.20000000298023224"/>
			<input>
				<port id="0">
					<dim>1</dim>
					<dim>512</dim>
					<dim>5</dim>
					<dim>5</dim>
				</port>
				<port id="1">
					<dim>1</dim>
					<dim>3</dim>
					<dim>300</dim>
					<dim>300</dim>
				</port>
			</input>
			<output>
				<port id="2">
					<dim>1</dim>
					<dim>2</dim>
					<dim>600</dim>
				</port>
			</output>
		</layer>
		<layer id="45" name="conv14_2_mbox_loc" precision="FP16" type="Convolution">
			<data dilation-x="1" dilation-y="1" group="1" kernel-x="1" kernel-y="1" output="24" pad-x="0" pad-y="0" stride="1,1,1,1" stride-x="1" stride-y="1"/>
			<input>
				<port id="0">
					<dim>1</dim>
					<dim>512</dim>
					<dim>5</dim>
					<dim>5</dim>
				</port>
			</input>
			<output>
				<port id="3">
					<dim>1</dim>
					<dim>24</dim>
					<dim>5</dim>
					<dim>5</dim>
				</port>
			</output>
			<blobs>
				<weights offset="5010108" size="24576"/>
				<biases offset="10515778" size="48"/>
			</blobs>
		</layer>
		<layer id="201" name="conv14_2_mbox_loc_perm" precision="FP16" type="Permute">
			<data order="0,2,3,1"/>
			<input>
				<port id="0">
					<dim>1</dim>
					<dim>24</dim>
					<dim>5</dim>
					<dim>5</dim>
				</port>
			</input>
			<output>
				<port id="1">
					<dim>1</dim>
					<dim>5</dim>
					<dim>5</dim>
					<dim>24</dim>
				</port>
			</output>
		</layer>
		<layer id="143" name="conv14_2_mbox_loc_flat" precision="FP16" type="Flatten">
			<data axis="1"/>
			<input>
				<port id="0">
					<dim>1</dim>
					<dim>5</dim>
					<dim>5</dim>
					<dim>24</dim>
				</port>
			</input>
			<output>
				<port id="1">
					<dim>1</dim>
					<dim>600</dim>
				</port>
			</output>
		</layer>
		<layer id="165" name="mbox_loc" precision="FP16" type="Concat">
			<data axis="1"/>
			<input>
				<port id="0">
					<dim>1</dim>
					<dim>4332</dim>
				</port>
				<port id="1">
					<dim>1</dim>
					<dim>2400</dim>
				</port>
				<port id="2">
					<dim>1</dim>
					<dim>600</dim>
				</port>
				<port id="3">
					<dim>1</dim>
					<dim>216</dim>
				</port>
				<port id="4">
					<dim>1</dim>
					<dim>96</dim>
				</port>
				<port id="5">
					<dim>1</dim>
					<dim>24</dim>
				</port>
			</input>
			<output>
				<port id="6">
					<dim>1</dim>
					<dim>7668</dim>
				</port>
			</output>
		</layer>
		<layer id="186" name="conv13_mbox_conf" precision="FP16" type="Convolution">
			<data dilation-x="1" dilation-y="1" group="1" kernel-x="1" kernel-y="1" output="126" pad-x="0" pad-y="0" stride="1,1,1,1" stride-x="1" stride-y="1"/>
			<input>
				<port id="0">
					<dim>1</dim>
					<dim>1024</dim>
					<dim>10</dim>
					<dim>10</dim>
				</port>
			</input>
			<output>
				<port id="3">
					<dim>1</dim>
					<dim>126</dim>
					<dim>10</dim>
					<dim>10</dim>
				</port>
			</output>
			<blobs>
				<weights offset="475656" size="258048"/>
				<biases offset="284636" size="252"/>
			</blobs>
		</layer>
		<layer id="9" name="conv13_mbox_conf_perm" precision="FP16" type="Permute">
			<data order="0,2,3,1"/>
			<input>
				<port id="0">
					<dim>1</dim>
					<dim>126</dim>
					<dim>10</dim>
					<dim>10</dim>
				</port>
			</input>
			<output>
				<port id="1">
					<dim>1</dim>
					<dim>10</dim>
					<dim>10</dim>
					<dim>126</dim>
				</port>
			</output>
		</layer>
		<layer id="221" name="conv13_mbox_conf_flat" precision="FP16" type="Flatten">
			<data axis="1"/>
			<input>
				<port id="0">
					<dim>1</dim>
					<dim>10</dim>
					<dim>10</dim>
					<dim>126</dim>
				</port>
			</input>
			<output>
				<port id="1">
					<dim>1</dim>
					<dim>12600</dim>
				</port>
			</output>
		</layer>
		<layer id="2" name="mbox_conf" precision="FP16" type="Concat">
			<data axis="1"/>
			<input>
				<port id="0">
					<dim>1</dim>
					<dim>22743</dim>
				</port>
				<port id="1">
					<dim>1</dim>
					<dim>12600</dim>
				</port>
				<port id="2">
					<dim>1</dim>
					<dim>3150</dim>
				</port>
				<port id="3">
					<dim>1</dim>
					<dim>1134</dim>
				</port>
				<port id="4">
					<dim>1</dim>
					<dim>504</dim>
				</port>
				<port id="5">
					<dim>1</dim>
					<dim>126</dim>
				</port>
			</input>
			<output>
				<port id="6">
					<dim>1</dim>
					<dim>40257</dim>
				</port>
			</output>
		</layer>
		<layer id="5" name="mbox_conf_reshape" precision="FP16" type="Reshape">
			<data axis="0" dim="0,-1,21" num_axes="-1"/>
			<input>
				<port id="0">
					<dim>1</dim>
					<dim>40257</dim>
				</port>
			</input>
			<output>
				<port id="1">
					<dim>1</dim>
					<dim>1917</dim>
					<dim>21</dim>
				</port>
			</output>
		</layer>
		<layer id="174" name="mbox_conf_softmax" precision="FP16" type="SoftMax">
			<data axis="2"/>
			<input>
				<port id="0">
					<dim>1</dim>
					<dim>1917</dim>
					<dim>21</dim>
				</port>
			</input>
			<output>
				<port id="1">
					<dim>1</dim>
					<dim>1917</dim>
					<dim>21</dim>
				</port>
			</output>
		</layer>
		<layer id="40" name="mbox_conf_flatten" precision="FP16" type="Flatten">
			<data axis="1"/>
			<input>
				<port id="0">
					<dim>1</dim>
					<dim>1917</dim>
					<dim>21</dim>
				</port>
			</input>
			<output>
				<port id="1">
					<dim>1</dim>
					<dim>40257</dim>
				</port>
			</output>
		</layer>
		<layer id="177" name="conv13_mbox_priorbox" precision="FP16" type="PriorBox">
			<data aspect_ratio="2.0,3.0" clip="0" flip="1" max_size="150.0" min_size="105.0" offset="0.5" variance="0.10000000149011612,0.10000000149011612,0.20000000298023224,0.20000000298023224"/>
			<input>
				<port id="0">
					<dim>1</dim>
					<dim>1024</dim>
					<dim>10</dim>
					<dim>10</dim>
				</port>
				<port id="1">
					<dim>1</dim>
					<dim>3</dim>
					<dim>300</dim>
					<dim>300</dim>
				</port>
			</input>
			<output>
				<port id="2">
					<dim>1</dim>
					<dim>2</dim>
					<dim>2400</dim>
				</port>
			</output>
		</layer>
		<layer id="137" name="mbox_priorbox" precision="FP16" type="Concat">
			<data axis="2"/>
			<input>
				<port id="0">
					<dim>1</dim>
					<dim>2</dim>
					<dim>4332</dim>
				</port>
				<port id="1">
					<dim>1</dim>
					<dim>2</dim>
					<dim>2400</dim>
				</port>
				<port id="2">
					<dim>1</dim>
					<dim>2</dim>
					<dim>600</dim>
				</port>
				<port id="3">
					<dim>1</dim>
					<dim>2</dim>
					<dim>216</dim>
				</port>
				<port id="4">
					<dim>1</dim>
					<dim>2</dim>
					<dim>96</dim>
				</port>
				<port id="5">
					<dim>1</dim>
					<dim>2</dim>
					<dim>24</dim>
				</port>
			</input>
			<output>
				<port id="6">
					<dim>1</dim>
					<dim>2</dim>
					<dim>7668</dim>
				</port>
			</output>
		</layer>
		<layer id="252" name="detection_out" precision="FP16" type="DetectionOutput">
			<data background_label_id="0" code_type="caffe.PriorBoxParameter.CENTER_SIZE" confidence_threshold="0.25" eta="1.0" input_height="-1" input_width="-1" keep_top_k="100" nms_threshold="0.44999998807907104" normalized="1" num_classes="21" share_location="1" top_k="100" variance_encoded_in_target="0" visualize="False"/>
			<input>
				<port id="0">
					<dim>1</dim>
					<dim>7668</dim>
				</port>
				<port id="1">
					<dim>1</dim>
					<dim>40257</dim>
				</port>
				<port id="2">
					<dim>1</dim>
					<dim>2</dim>
					<dim>7668</dim>
				</port>
			</input>
			<output>
				<port id="3">
					<dim>1</dim>
					<dim>1</dim>
					<dim>100</dim>
					<dim>7</dim>
				</port>
			</output>
		</layer>
	</layers>
	<edges>
		<edge from-layer="103" from-port="0" to-layer="48" to-port="0"/>
		<edge from-layer="48" from-port="3" to-layer="203" to-port="0"/>
		<edge from-layer="203" from-port="1" to-layer="283" to-port="0"/>
		<edge from-layer="283" from-port="3" to-layer="100" to-port="0"/>
		<edge from-layer="100" from-port="1" to-layer="234" to-port="0"/>
		<edge from-layer="234" from-port="3" to-layer="30" to-port="0"/>
		<edge from-layer="30" from-port="1" to-layer="308" to-port="0"/>
		<edge from-layer="308" from-port="3" to-layer="183" to-port="0"/>
		<edge from-layer="183" from-port="1" to-layer="323" to-port="0"/>
		<edge from-layer="323" from-port="3" to-layer="94" to-port="0"/>
		<edge from-layer="94" from-port="1" to-layer="193" to-port="0"/>
		<edge from-layer="193" from-port="3" to-layer="246" to-port="0"/>
		<edge from-layer="246" from-port="1" to-layer="305" to-port="0"/>
		<edge from-layer="305" from-port="3" to-layer="325" to-port="0"/>
		<edge from-layer="325" from-port="1" to-layer="233" to-port="0"/>
		<edge from-layer="233" from-port="3" to-layer="227" to-port="0"/>
		<edge from-layer="227" from-port="1" to-layer="84" to-port="0"/>
		<edge from-layer="84" from-port="3" to-layer="301" to-port="0"/>
		<edge from-layer="301" from-port="1" to-layer="154" to-port="0"/>
		<edge from-layer="154" from-port="3" to-layer="269" to-port="0"/>
		<edge from-layer="269" from-port="1" to-layer="209" to-port="0"/>
		<edge from-layer="209" from-port="3" to-layer="98" to-port="0"/>
		<edge from-layer="98" from-port="1" to-layer="69" to-port="0"/>
		<edge from-layer="69" from-port="3" to-layer="260" to-port="0"/>
		<edge from-layer="260" from-port="1" to-layer="59" to-port="0"/>
		<edge from-layer="59" from-port="3" to-layer="64" to-port="0"/>
		<edge from-layer="64" from-port="1" to-layer="106" to-port="0"/>
		<edge from-layer="106" from-port="3" to-layer="178" to-port="0"/>
		<edge from-layer="178" from-port="1" to-layer="211" to-port="0"/>
		<edge from-layer="211" from-port="3" to-layer="324" to-port="0"/>
		<edge from-layer="324" from-port="1" to-layer="86" to-port="0"/>
		<edge from-layer="86" from-port="3" to-layer="27" to-port="0"/>
		<edge from-layer="27" from-port="1" to-layer="152" to-port="0"/>
		<edge from-layer="152" from-port="3" to-layer="198" to-port="0"/>
		<edge from-layer="198" from-port="1" to-layer="295" to-port="0"/>
		<edge from-layer="295" from-port="3" to-layer="20" to-port="0"/>
		<edge from-layer="20" from-port="1" to-layer="205" to-port="0"/>
		<edge from-layer="205" from-port="3" to-layer="109" to-port="0"/>
		<edge from-layer="109" from-port="1" to-layer="319" to-port="0"/>
		<edge from-layer="319" from-port="3" to-layer="270" to-port="0"/>
		<edge from-layer="270" from-port="1" to-layer="328" to-port="0"/>
		<edge from-layer="328" from-port="3" to-layer="240" to-port="0"/>
		<edge from-layer="240" from-port="1" to-layer="330" to-port="0"/>
		<edge from-layer="330" from-port="3" to-layer="281" to-port="0"/>
		<edge from-layer="281" from-port="1" to-layer="166" to-port="0"/>
		<edge from-layer="166" from-port="3" to-layer="302" to-port="0"/>
		<edge from-layer="302" from-port="1" to-layer="273" to-port="0"/>
		<edge from-layer="103" from-port="0" to-layer="273" to-port="1"/>
		<edge from-layer="302" from-port="1" to-layer="12" to-port="0"/>
		<edge from-layer="12" from-port="3" to-layer="136" to-port="0"/>
		<edge from-layer="136" from-port="1" to-layer="199" to-port="0"/>
		<edge from-layer="302" from-port="1" to-layer="294" to-port="0"/>
		<edge from-layer="294" from-port="3" to-layer="278" to-port="0"/>
		<edge from-layer="278" from-port="1" to-layer="242" to-port="0"/>
		<edge from-layer="302" from-port="1" to-layer="159" to-port="0"/>
		<edge from-layer="159" from-port="3" to-layer="268" to-port="0"/>
		<edge from-layer="268" from-port="1" to-layer="321" to-port="0"/>
		<edge from-layer="321" from-port="3" to-layer="111" to-port="0"/>
		<edge from-layer="111" from-port="1" to-layer="67" to-port="0"/>
		<edge from-layer="67" from-port="3" to-layer="29" to-port="0"/>
		<edge from-layer="29" from-port="1" to-layer="243" to-port="0"/>
		<edge from-layer="243" from-port="3" to-layer="28" to-port="0"/>
		<edge from-layer="28" from-port="1" to-layer="97" to-port="0"/>
		<edge from-layer="97" from-port="3" to-layer="95" to-port="0"/>
		<edge from-layer="95" from-port="1" to-layer="170" to-port="0"/>
		<edge from-layer="28" from-port="1" to-layer="34" to-port="0"/>
		<edge from-layer="34" from-port="3" to-layer="213" to-port="0"/>
		<edge from-layer="213" from-port="1" to-layer="13" to-port="0"/>
		<edge from-layer="13" from-port="3" to-layer="57" to-port="0"/>
		<edge from-layer="57" from-port="1" to-layer="202" to-port="0"/>
		<edge from-layer="202" from-port="3" to-layer="26" to-port="0"/>
		<edge from-layer="26" from-port="1" to-layer="53" to-port="0"/>
		<edge from-layer="53" from-port="3" to-layer="11" to-port="0"/>
		<edge from-layer="11" from-port="1" to-layer="195" to-port="0"/>
		<edge from-layer="195" from-port="3" to-layer="99" to-port="0"/>
		<edge from-layer="99" from-port="1" to-layer="245" to-port="0"/>
		<edge from-layer="11" from-port="1" to-layer="196" to-port="0"/>
		<edge from-layer="103" from-port="0" to-layer="196" to-port="1"/>
		<edge from-layer="11" from-port="1" to-layer="85" to-port="0"/>
		<edge from-layer="85" from-port="3" to-layer="31" to-port="0"/>
		<edge from-layer="31" from-port="1" to-layer="81" to-port="0"/>
		<edge from-layer="81" from-port="3" to-layer="35" to-port="0"/>
		<edge from-layer="35" from-port="1" to-layer="80" to-port="0"/>
		<edge from-layer="103" from-port="0" to-layer="80" to-port="1"/>
		<edge from-layer="35" from-port="1" to-layer="90" to-port="0"/>
		<edge from-layer="90" from-port="3" to-layer="167" to-port="0"/>
		<edge from-layer="167" from-port="1" to-layer="300" to-port="0"/>
		<edge from-layer="35" from-port="1" to-layer="293" to-port="0"/>
		<edge from-layer="293" from-port="3" to-layer="118" to-port="0"/>
		<edge from-layer="118" from-port="1" to-layer="272" to-port="0"/>
		<edge from-layer="35" from-port="1" to-layer="62" to-port="0"/>
		<edge from-layer="62" from-port="3" to-layer="116" to-port="0"/>
		<edge from-layer="116" from-port="1" to-layer="91" to-port="0"/>
		<edge from-layer="91" from-port="3" to-layer="255" to-port="0"/>
		<edge from-layer="255" from-port="1" to-layer="104" to-port="0"/>
		<edge from-layer="104" from-port="3" to-layer="248" to-port="0"/>
		<edge from-layer="248" from-port="1" to-layer="191" to-port="0"/>
		<edge from-layer="255" from-port="1" to-layer="148" to-port="0"/>
		<edge from-layer="148" from-port="3" to-layer="130" to-port="0"/>
		<edge from-layer="130" from-port="1" to-layer="147" to-port="0"/>
		<edge from-layer="255" from-port="1" to-layer="156" to-port="0"/>
		<edge from-layer="103" from-port="0" to-layer="156" to-port="1"/>
		<edge from-layer="11" from-port="1" to-layer="182" to-port="0"/>
		<edge from-layer="182" from-port="3" to-layer="153" to-port="0"/>
		<edge from-layer="153" from-port="1" to-layer="17" to-port="0"/>
		<edge from-layer="57" from-port="1" to-layer="108" to-port="0"/>
		<edge from-layer="108" from-port="3" to-layer="133" to-port="0"/>
		<edge from-layer="133" from-port="1" to-layer="171" to-port="0"/>
		<edge from-layer="57" from-port="1" to-layer="114" to-port="0"/>
		<edge from-layer="103" from-port="0" to-layer="114" to-port="1"/>
		<edge from-layer="57" from-port="1" to-layer="45" to-port="0"/>
		<edge from-layer="45" from-port="3" to-layer="201" to-port="0"/>
		<edge from-layer="201" from-port="1" to-layer="143" to-port="0"/>
		<edge from-layer="242" from-port="1" to-layer="165" to-port="0"/>
		<edge from-layer="170" from-port="1" to-layer="165" to-port="1"/>
		<edge from-layer="143" from-port="1" to-layer="165" to-port="2"/>
		<edge from-layer="17" from-port="1" to-layer="165" to-port="3"/>
		<edge from-layer="300" from-port="1" to-layer="165" to-port="4"/>
		<edge from-layer="191" from-port="1" to-layer="165" to-port="5"/>
		<edge from-layer="28" from-port="1" to-layer="186" to-port="0"/>
		<edge from-layer="186" from-port="3" to-layer="9" to-port="0"/>
		<edge from-layer="9" from-port="1" to-layer="221" to-port="0"/>
		<edge from-layer="199" from-port="1" to-layer="2" to-port="0"/>
		<edge from-layer="221" from-port="1" to-layer="2" to-port="1"/>
		<edge from-layer="171" from-port="1" to-layer="2" to-port="2"/>
		<edge from-layer="245" from-port="1" to-layer="2" to-port="3"/>
		<edge from-layer="272" from-port="1" to-layer="2" to-port="4"/>
		<edge from-layer="147" from-port="1" to-layer="2" to-port="5"/>
		<edge from-layer="2" from-port="6" to-layer="5" to-port="0"/>
		<edge from-layer="5" from-port="1" to-layer="174" to-port="0"/>
		<edge from-layer="174" from-port="1" to-layer="40" to-port="0"/>
		<edge from-layer="28" from-port="1" to-layer="177" to-port="0"/>
		<edge from-layer="103" from-port="0" to-layer="177" to-port="1"/>
		<edge from-layer="273" from-port="2" to-layer="137" to-port="0"/>
		<edge from-layer="177" from-port="2" to-layer="137" to-port="1"/>
		<edge from-layer="114" from-port="2" to-layer="137" to-port="2"/>
		<edge from-layer="196" from-port="2" to-layer="137" to-port="3"/>
		<edge from-layer="80" from-port="2" to-layer="137" to-port="4"/>
		<edge from-layer="156" from-port="2" to-layer="137" to-port="5"/>
		<edge from-layer="165" from-port="6" to-layer="252" to-port="0"/>
		<edge from-layer="40" from-port="1" to-layer="252" to-port="1"/>
		<edge from-layer="137" from-port="6" to-layer="252" to-port="2"/>
	</edges>
</net>
